Chapter 2/text_classification/results/best_weights.pt (torch, 82391 bytes, 6 tensors)

fc1.weight f4 [100, 97]
00000000: 03fa aabb 5938 303d fd7f 43bd 75b2 10bd
00000010: efd8 c2bc cfd0 d83c d793 1f3b c1ee 7a3d
00000020: fb78 07bc 3664 be3c 23d5 b8bb af5f bdbc
00000030: b219 86bd c92c 5cbd 3b1a 89bc 6ca4 683c
00000040: 64f0 213d 4731 5e3d 024a 49bd 1d98 94bc
00000050: 8fa4 453d 1136 7f3d 77a5 4ebc 30c8 7d3d
00000060: 7f98 773a 1027 cc3c f4dc ae3d b74c 9ebd
00000070: c67f 1fbd 043f 9fbc 6207 95bc 51e9 953d
00000080: 98f3 e2bc 78e0 fabb d135 19bd 08c6 95bd
00000090: 146d 0dbd 5168 ac3d 2d72 173d de34 383d
000000a0: d925 e93a 4d68 2dbd dfd2 c03c ac66 acbd
000000b0: b370 59bd a9e9 60bd fe66 403d f85e 743d
000000c0: 7c21 35bd 8033 67bc 1ffb 0c3d d1b9 943d
000000d0: 32be 003d 04e3 7a3c 8953 273d 5a22 77bd
000000e0: e949 0a3d 7d71 69bd a2de 4ebd 539f 54bd
000000f0: 0d89 323d da87 7b3d 7aed 92bd a096 0b3d
00000100: cd73 463d 9da0 9ebb 727d 223c ee30 d73c
00000110: 2f9a a23d 5224 e03d f800 4ebd 9c23 81bd
00000120: 48f8 1a3d 01c0 783d c85c c63d 5c3c a83d
00000130: df5c 5b38 5b6a adbd 18d8 a53c 0b08 15bd
00000140: 17da a7bd 0573 d53d 3b7d aa3d f8a6 d0bd
00000150: f145 1c3d 2a2b 2e3c 3ddb 95bc 2f37 13bd
00000160: 921a 413d 3e76 3abd 327f 323d 810c c13c
00000170: 6a14 953d 163e 513b 0459 acbd 6483 d0bd
00000180: da3b 863d 90b9 5a3b 5d23 2bbd 6b49 f8bb
00000190: 9a85 963d c1f1 473d 7c9b 6ebb 4c16 c23b
000001a0: 6d8f 10bd 8667 b6bc 92e5 04bd d06b d9bc
000001b0: dfdd 143c b05c ab3c e428 26bc d225 2b3d
000001c0: 2bee 79bc 7455 603c 2f12 623d 5382 0cbd
000001d0: 47cc 89bc 56d1 c13c fc03 773c 2872 9f3c
000001e0: 0173 1fbb 4770 b9bc 6253 27bd d0ed c93c
000001f0: 1ee9 9dbc 73b7 80bc a753 533b ed13 4bbd
00000200: 5971 a739 0506 78bc 7833 da3b b41a 9b3c
00000210: fa3b 34bc 26d8 16ba 3c22 f03c 4685 ec3c
00000220: 80f5 f33b d973 2dbc 17f3 f03b d518 4e3d
00000230: cee4 5e3d d8b2 f03c 95a6 b43d 1f71 e33c
00000240: 5125 7fbd f396 f0bc 4ac5 823d 3231 233c
00000250: 8ea8 7cbc bc51 42bd 92b6 b6bd 5935 82bd
00000260: 8bc3 92bc 8d5d 6d3d 1f47 8d3d a949 d4bd
00000270: f9ca 8e3d 6147 acbd f53f 83bc 1b44 37bc
00000280: 8669 25bb 8081 3b3a 2c43 8dbd 2a2a 82bd
00000290: 269a 0d3c cb26 b03b 6139 7bbc 6698 113d
000002a0: 70f5 50bd ef60 763c 7a58 d83d 9bb2 863b
000002b0: bcb5 083e 6c06 8e3d 3334 9bbd b3a5 6c3d
000002c0: 20b8 f23b e8d4 c8bb f74c a43d 71fa 9bbd
000002d0: 93c8 233d 4f4c 2fbd c7f6 8f3d 2294 2a3d
000002e0: 472d ed3c 000a 343d 6f4d 7dbd 0133 e6bb
000002f0: fbee 61bd 039a a13d 5917 cc3d f97d d73d
00000300: 0502 47bd f75e 74bc c7a1 f8bb ecfc 2dbc
00000310: b517 1ebd 8af7 1bbb 7b7a b8bc c617 68bc
00000320: 7f38 0d3c ebd8 2c3b 31f7 31bd b831 733a
00000330: ac6f 433b b29c 8f3c 8007 aebb e7ec 683d
00000340: 9487 103d f83e 00bd dae9 b83b 321e e739
00000350: 5e08 263d 7c03 073c 5f19 d2bc 806e 1d3b
00000360: 0dc5 65bd e3c6 84bc e1b1 103d a196 35bd
00000370: 73cc 8b3c 8d9e 643d 2797 713c 00fb c83c
00000380: f753 cbbc e96f 463c 2aa3 58bd 06ef 1b3b
00000390: 8014 25bc c03b 0bbc d234 c13c 73d3 6d3d
000003a0: 2a87 8c3c ff1b 55ba 1557 1e3d 6940 f1bc
000003b0: f890 503c a43f acbd 4a6b 78bc 3b13 8f3c
000003c0: 8e4d bf3c fe9a 283d 221a 93bc 0a7d 48ba
000003d0: 85e2 9b3c 41c9 69bd cb2e a83c c201 81bd
000003e0: 20ac 303b 9948 593c 40d5 6b3b 2ceb e13c
000003f0: 3cc3 c93d c2c6 a9bc 8e70 0abc 66d5 39bd
-0.005217792 0.043022487 -0.04772948 -0.03532644 -0.023785083 0.026466755 0.0024349594 0.06126285
-0.00826859 0.023241144 -0.0056406423 -0.023116915 -0.0654787 -0.053753648 -0.01673614 0.0141993575
0.039535895 0.054246213 -0.049142845 -0.01813894 0.04825264 0.06230742 -0.012612692 0.06195849
0.0009445026 0.02492097 0.08538237 -0.07729476 -0.038940214 -0.019439228 -0.018191997 0.07319892
-0.027704045 -0.0076561533 -0.03740484 -0.07313162 -0.034527853 0.08418334 0.03697412 0.044972293
0.0017787769 -0.042335797 0.023538051 -0.084180206 -0.053085994 -0.054910336 0.04697322 0.05966088
-0.044221386 -0.0141114 0.034419175 0.07262004 0.031431384 0.015312914 0.04085115 -0.060335495
0.033761892 -0.056992996 -0.050505288 -0.051909756 0.043587733 0.061408855 -0.07174201 0.034079194
0.04845028 -0.004840924 0.009917604 0.026268449 0.079395644 0.109444275 -0.050293893 -0.0630562
0.037834436 0.060729984 0.09685665 0.08214638 5.230016e-05 -0.08467551 0.020244643 -0.036384623
-0.08195894 0.10422329 0.08324667 -0.10188097 0.03815264 0.010630408 -0.018293018 -0.0359413
0.04714448 -0.04552292 0.043578334 0.023565533 0.07279284 0.0031927875 -0.08415416 -0.10181311
0.065543845 0.0033374764 -0.041781772 -0.0075771115 0.07349701 0.04881454 -0.0036408594 0.005923068
-0.03529303 -0.02226616 -0.032445498 -0.026540667 0.009086101 0.02091822 -0.010141585 0.041784115
-0.015254538 0.013692249 0.055193122 -0.034303974 -0.01682104 0.02365939 0.015076634 0.019463614
-0.0024330022 -0.022636546 -0.040851004 0.02464953 -0.019276198 -0.015712475 0.0032245906 -0.04957955
0.00031937173 -0.015138154 0.0066589676 0.018933631 -0.011000628 -0.00057542545 0.0293132 0.028872143
0.0074450374 -0.010586702 0.0073531973 0.05031665 0.054417424 0.029382154 0.088208355 0.027763901
-0.062291447 -0.029368853 0.06385286 0.00996046 -0.015421046 -0.04744123 -0.08921541 -0.063578315
-0.017915508 0.057950545 0.06898331 -0.10365612 0.06972308 -0.08412052 -0.016021708 -0.011185671
-0.0025239899 0.0007152781 -0.06897578 -0.063556984 0.008642709 0.005375718 -0.015333504 0.03554573
-0.051015317 0.015037759 0.105637506 0.004110647 0.13350576 0.069348186 -0.075783156 0.05777521
0.0074072033 -0.006128896 0.080224924 -0.07616127 0.039986204 -0.042797383 0.07029491 0.041645177
0.028952254 0.04395485 -0.061841425 -0.007025123 -0.05515955 0.078907035 0.09965391 0.10522074
-0.04858591 -0.0149152195 -0.0075876447 -0.010619383 -0.038596828 -0.0023798668 -0.02251934 -0.014165824
0.008619427 0.002637441 -0.04344863 0.0009277123 0.00298212 0.017530773 -0.0053109527 0.056866553
0.035285547 -0.03131005 0.0056431117 0.0004408225 0.040535323 0.008240577 -0.025646864 0.0024022162
-0.056096125 -0.016208118 0.03532589 -0.044333104 0.017065262 0.05581527 0.01474551 0.024533749
-0.024820311 0.012111642 -0.05288998 0.0023793592 -0.010075688 -0.008498132 0.023584757 0.05806298
0.017154295 -0.0008129477 0.038657267 -0.029449658 0.012729876 -0.08410576 -0.015162298 0.017465224
0.02335241 0.041163437 -0.017956797 -0.0007648027 0.019028911 -0.057076696 0.020530125 -0.062991634
0.0026958063 0.013261938 0.0035985261 0.027577959 0.09851691 -0.020724658 -0.008449687 -0.04536953

fc1.bias f4 [100]
00000000: d508 083e f62b a9bd 8a00 063d 106e 41bb
00000010: be13 e13b 0431 bebc 31ca 0b3d 0dc3 e1bc
00000020: 7947 52bc bcbb b9bc 44bf 6bbd 0bff 09be
00000030: 4450 f53d a87c cb3d dff0 b5bd ea72 af3c
00000040: b0ad 60bd 11e7 c8bc 5a76 9dbc 552b 053d
00000050: 05ad 7a3c bd1f d83d 9eb8 1e3d f9d7 89bd
00000060: 43d7 61bd 34dc 853c 6744 893d 9599 f3bc
00000070: 2d46 cc3c 4620 be3d fe96 d43d 883e 1b3d
00000080: b8a0 043d 1b50 9d3d 65fe 8b3c f20d d03d
00000090: 8d5f 993d 7e1c b83d 2f2d cd3d 83d4 19be
000000a0: 4e46 c7bc 1eb8 32bd 214d 3dbc 5c7c a2bd
000000b0: 235f 7dbd cfc2 1d3d bf8c eebd 7764 bbbd
000000c0: 4433 3e3b 1175 193c d635 2fbd 6669 f2bd
000000d0: 2976 333c 5f41 b93d 5625 a43d 8440 88bd
000000e0: 0795 be3c d22b cabd 7750 7fbd ca7f 65bb
000000f0: fdab f53d e53a fcbc 9291 133e ff70 74bc
00000100: 5f21 34bd ce5b 053c d6f8 1c3d b097 803d
00000110: 7cf6 81bc 772a 3fbd 9a9f 8ebd 9142 d7bd
00000120: 9df8 cabb 8fec 343d b98a 683d 9a08 453d
00000130: 1b7a b3bd 31b9 da39 d8eb 8abd be52 f53b
00000140: 437a 1a3e d147 81bc d4d6 05bd 7264 0cbe
00000150: e39b 92bd dd84 773c 4408 4dbd 40d8 d23c
00000160: 7a47 8dbc efb1 83bd 7345 633c 81a9 e6bc
00000170: 52f6 613d 41da 553d 163e d6bc f72b ec3c
00000180: c6c8 28bd 1ef7 09bd b1b9 b63d f5da 0fbd
0.13284619 -0.08260338 0.032715358 -0.0029515065 0.0068688085 -0.023216732 0.03412837 -0.027558828
-0.012834423 -0.022672527 -0.057555452 -0.13476197 0.119782 0.09935886 -0.08883833 0.0214171
-0.05485314 -0.024524244 -0.019221473 0.032512028 0.01530004 0.105529286 0.038750283 -0.06730647
-0.05513693 0.016340353 0.067025 -0.02973632 0.024935806 0.092834994 0.10380362 0.03790143
0.032379836 0.076812945 0.017089078 0.1015891 0.07488928 0.089898095 0.10018384 -0.15022473
-0.024325516 -0.04363262 -0.0115540335 -0.07933876 -0.061858308 0.038515862 -0.11647939 -0.091500215
0.0029022256 0.00936629 -0.04277595 -0.118365094 0.010953465 0.09045672 0.08014934 -0.066529304
0.023264421 -0.09871639 -0.062332597 -0.0035018795 0.11995695 -0.030789802 0.14411 -0.0149195185
-0.043977138 0.008139564 0.038323246 0.06278932 -0.015864603 -0.046671357 -0.06964035 -0.105107434
-0.006194188 0.044170912 0.05677292 0.048103906 -0.08763524 0.0004171818 -0.06783265 0.0074866703
0.15085702 -0.015781315 -0.03267558 -0.13710192 -0.07158639 0.015107361 -0.05005671 0.025737882
-0.017245997 -0.064304225 0.013871538 -0.028156998 0.05516655 0.052210096 -0.026152652 0.028829558
-0.041207097 -0.033682935 0.089221366 -0.035120923

fc2.weight f4 [100, 100]
00000000: cd32 bdbc 5414 593d eeaf 42bc 350c ca3b
00000010: c734 cdbc b19a d7bc aa77 7bbc 5da8 563c
00000020: 569b 463d 078e 86bd dd4d a83c b96d 40bc
00000030: a36f 6ebd b3ff a93b 8419 9dbd 80dd 573d
00000040: 5159 dabc d824 6cbd 9686 1fbd 6835 9cbb
00000050: a07e 37bd 1ee9 e33c 4ea6 1f3d a5f7 97bd
00000060: 3a1e 373d 09c2 8fbd 8ed9 e33c a611 8abd
00000070: e79b f83c d35a f5bc 39ef 89bd d1e1 03bd
00000080: 495e aabc 7f0d 9cbb 9e08 fbbc 8eea 4a3c
00000090: 068c b43a bdf0 99bd 08a6 303c 6736 a5bb
000000a0: 08c1 1e3d 7f0a 653d c789 9bbd 5007 89bd
000000b0: 5bad 8c3d 97b4 2bbc f7d4 4ebd edf1 773c
000000c0: bc7b 44bd 98f2 9bbd 4b21 68bd 2110 87bd
000000d0: 61d8 8e3d f6a2 b03c f837 483b c332 e6bb
000000e0: 6256 ffbc a52f 8cbd 3172 07bd bbc1 29bd
000000f0: bfda 473c 5df5 58bd 647c 1a3c 652e 633c
00000100: d176 c43c ec34 183d 48f2 9b3d 2d07 103c
00000110: c8a8 34bd 5aa5 14bd c932 8d3d 0801 153d
00000120: 03ca 97bc 68ae 233d 68c4 363d 0d2e bb3c
00000130: 1893 47bd f1da d23d 33ae 1dbd e000 7bbd
00000140: 1b38 90bc 401f 353c f4d7 88bd f8e7 0b3d
00000150: f700 2c3c 7d8b 1fbd ebf6 bfbb afbf bf3d
00000160: fbc7 d6bc 55ef 4d3d d30b 453d 041d 1d3c
00000170: 91f7 71bd fe1e 50bd c5de c2bc be1b b3bb
00000180: 369f 8abd 14b5 7dbd 42c2 2dbd ec53 693c
00000190: 7c2f c2bc 78f7 27bd 5632 3ebc ab79 49bd
000001a0: 885d c7bc 6b13 0f3d 833f 673d 24da a43c
000001b0: a733 a73d c2a3 b93c ed01 5abd 23f2 85bc
000001c0: b671 2e3d 7e59 9bbc f8a8 8b3d 6ae2 273d
000001d0: 7c6d 1bbd 5f7d 563c f0bc c9bc de73 833c
000001e0: 32ef 2fbd 45f5 893d 3cd0 7fbc 2eda 0dbc
000001f0: ba53 36bd ecd9 013d 0384 9abc faff 5dbd
00000200: d3b6 acbd a7fa 273d 51e2 4fbc c058 083d
00000210: 29f7 fbbc 9cd1 883b 90a9 33bd 37ac 3a3d
00000220: bb07 5e3d eec1 80bd 4eea 2a3c 2e99 63bd
00000230: 21bd f13c 624f e2ba 2c9d 9b3c bfa5 91bd
00000240: f3f5 853d 7252 4c3d 1a89 38bd 497a 9fbd
00000250: d6aa 583d 420b b0bd 05fd 523d 9aa3 31bd
00000260: 0598 98bd 55e3 c83c 7702 9bbd 3281 12bd
00000270: 2c98 893d a4d0 973c 0f03 5e3d 21e2 ba3d
00000280: 289a 67ba 00cb 0bbd c733 21bd 2e57 e93c
00000290: 04ed 2ebd 9b41 653d 389d ce3c 8270 8e3c
000002a0: 9815 dbba 8cdc 63bd f6ed 813d f7b1 07bd
000002b0: def1 debb 3fb5 ccbc fc84 813d 40bb 76bc
000002c0: 45b9 b33c c18d 86bd d71a 8c3d 1e82 aebd
000002d0: a192 223d b322 353d 7dc8 aa3c 5a64 9ebd
000002e0: 2088 46bd 3ae9 bcbb 8fbb dfbc 6660 3bbc
000002f0: 0f46 35bc cdf7 e0bc 9956 5b3d 428c 8b3d
00000300: d4bb 723a d3b5 363d c067 8f3c 9b65 743d
00000310: 4e9e 43bd 6c7a 19b9 9784 21bd 0c16 9f3d
00000320: 3067 a03d bfc0 bbbc 0c68 7fbd 91a4 17bd
00000330: d526 463c 897e b33c 9c39 27bd e491 e53c
00000340: a605 30bc a78a a03d 5be9 debc 00c4 74bd
00000350: c6e1 723b 073e 393a fea9 543d f920 bf3d
00000360: 472a 0abd afcb bb3d a5cd 613d a971 a63d
00000370: 180e c13c 8768 76bc 3fbe 7bbb c9ec ea3b
00000380: d6b3 41bd 1558 07bd 25f2 843d 338c 473c
00000390: fc4c 5d3c 7c68 7f3b 03e1 9c39 26b5 80bd
000003a0: e562 cbbb 3c10 5cbc f0a3 e1bc 4521 6cbd
000003b0: 4dee fcbb a932 3a3b dddd 8dbc bbd5 febc
000003c0: 45b8 dabc 147c 9ebb 3549 bebd 1df2 aa3d
000003d0: 04ff 74bd 955c 4f3d dde6 aebd fdfc 2f3b
000003e0: 2bc8 05bc ada8 a9bd 3e5e 3cb8 1a4b a1bd
000003f0: 9105 e83c 88c0 3e3d 3323 82ba 04eb 6f3c
-0.023095513 0.052997902 -0.011882765 0.006166006 -0.02504958 -0.02631888 -0.015348354 0.013101664
0.048487984 -0.06570058 0.02054494 -0.01174491 -0.058211934 0.0051879524 -0.07670882 0.052701473
-0.026653918 -0.057652324 -0.03894671 -0.0047671087 -0.044798493 0.02782112 0.03897696 -0.07420281
0.04470656 -0.07019431 0.0278137 -0.067416474 0.030347778 -0.029950535 -0.06735081 -0.032197777
-0.020796912 -0.004762351 -0.030643757 0.012385024 0.001377464 -0.0751662 0.010781772 -0.0050418857
0.038758308 0.055918213 -0.07594638 -0.06690848 0.068690024 -0.010480068 -0.050496068 0.015133363
-0.047969565 -0.076146305 -0.056672376 -0.06594873 0.06974865 0.02156208 0.0030550938 -0.0070250942
-0.03116912 -0.06845025 -0.033067886 -0.04144452 0.012198149 -0.05296837 0.009429071 0.013866042
0.023982437 0.037159845 0.07614571 0.008790773 -0.044106275 -0.036290504 0.06894452 0.036377937
-0.018528944 0.03996125 0.0446209 0.022849107 -0.048724264 0.10295666 -0.038496207 -0.06128013
-0.017604878 0.011054814 -0.06681815 0.03415677 0.010498277 -0.038951386 -0.0058582923 0.093627326
-0.026218405 0.050277073 0.04810698 0.009589437 -0.05907399 -0.050810806 -0.023787865 -0.0054659536
-0.06768648 -0.061940268 -0.042421587 0.0142412 -0.023704283 -0.04100749 -0.011608681 -0.049188297
-0.024336591 0.034930628 0.056457054 0.020123549 0.08164149 0.022661094 -0.053224493 -0.016350811
0.042588912 -0.018963572 0.068193376 0.04098741 -0.03794621 0.013091414 -0.024626225 0.01604646
-0.042952724 0.067362346 -0.015613612 -0.008657975 -0.04451344 0.031701967 -0.018861776 -0.054199196
-0.084333085 0.041010525 -0.012688235 0.033287764 -0.030757504 0.004175378 -0.04386288 0.045574393
0.05420659 -0.06286989 0.010431839 -0.055566005 0.029509129 -0.001726609 0.018995844 -0.07111692
0.06541052 0.049883313 -0.045052625 -0.07786996 0.052897297 -0.08595897 0.05151083 -0.043368913
-0.074508704 0.024522463 -0.075688295 -0.03576774 0.067184776 0.018532105 0.054202136 0.09125162
-0.0008834922 -0.034129143 -0.03935602 0.028483953 -0.042706504 0.05597077 0.025221452 0.017387632
-0.001671481 -0.05563025 0.063442156 -0.033128705 -0.006803735 -0.024988769 0.06324193 -0.015059292
0.02193893 -0.06570006 0.06841057 -0.08520912 0.039690617 0.044222545 0.020847553 -0.07733984
-0.048469663 -0.0057651075 -0.027311115 -0.011436557 -0.011064067 -0.02746191 0.053549383 0.068138614
0.0009259556 0.044606995 0.017505527 0.05966721 -0.047758393 -0.00014636823 -0.03943309 0.07767877
0.078321815 -0.022919057 -0.062355086 -0.037022177 0.012094219 0.021910923 -0.040826425 0.028023668
-0.010743534 0.07838946 -0.027210882 -0.059757233 0.003706084 0.0007066433 0.05191993 0.09332461
-0.033731725 0.09169709 0.05512776 0.08127148 0.02356629 -0.01503957 -0.0038412956 0.0071693403
-0.047290646 -0.033042986 0.06491498 0.012179422 0.013507124 0.003897219 0.00029922285 -0.06284551
-0.0062068575 -0.013431605 -0.027543992 -0.057648916 -0.0077188374 0.0028411543 -0.017317707 -0.031107774
-0.026699195 -0.0048365686 -0.09291307 0.08346961 -0.059813514 0.050625402 -0.085401274 0.0026853674
-0.0081654 -0.082841255 -4.4910463e-05 -0.078756526 0.028322967 0.04657033 -0.0009928703 0.014643434

fc2.bias f4 [100]
00000000: 64c9 02bc a0e9 1ebd 437b 883d d54c 64be
00000010: 45cb 8fbd 190a 573e bf90 62be e8cc 703e
00000020: facf 1a3e a45d f1bc da35 cf3d 4445 81be
00000030: b722 bfbd 886d 58bd f2c9 2cbb 81b7 30bd
00000040: 2bb4 b73c 780f aebc b9e9 32be 218a f9bd
00000050: b0d2 82be a211 f93c 9388 4a3e 4ad9 67be
00000060: 7cbc 4d3e 66af 8f3b df77 133d 68cf 183d
00000070: 5c6b b8bd daff e6bd b45a 383e 0307 c5bd
00000080: b322 aebb 050d e7bc caad 0f3e 372e f0bd
00000090: be25 0d3e 554a 5b3c e9a6 9dbd 7815 d13d
000000a0: 1bb9 4a3e 0507 3cbe 76bd 363e e05a 6f3d
000000b0: 9373 9ebd d87e 163e 98d3 dc3d 29cf 003d
000000c0: a862 b83d 5423 1f3e 4907 d3bd d412 7e3d
000000d0: 7f63 193d 4b81 393e d040 b33d 0513 4cbe
000000e0: f4ad 3c3d 0c7d 8abd f4ee 32be 7eca 0a3e
000000f0: 7780 48be 32c9 b5bd fbfa 0e3d 5d0c bfbd
00000100: 994e 39be 95db ddbc d360 9abc 62bc 50be
00000110: e38e 46bd 9ccc ccbd c9d4 283e 9927 44be
00000120: 4758 013e 7225 5a3e 69ea 263e 2498 1ebd
00000130: 5d47 38bd 879b 2abd e2cd 603d 4d6c a3bd
00000140: 5d89 d4bd bdc2 3e3e 4a10 a43d faa6 5a3d
00000150: 79dd 43be 3e41 133e b56a bcbd 1560 4cbd
00000160: 7651 69be 39aa 033e c367 1c3e 9d90 88be
00000170: 1c15 f0bd 77e6 043e 537d 37be 3516 24be
00000180: ae31 8abe 8883 75bd 62bf 013e 4737 503e
-0.007982586 -0.03879702 0.06664135 -0.22294934 -0.070211925 0.20999946 -0.22125529 0.23515666
0.151184 -0.029463597 0.10117693 -0.25248158 -0.09332793 -0.052838832 -0.0026365486 -0.043143753
0.022424778 -0.02124761 -0.1747197 -0.12184549 -0.25551367 0.030403916 0.19778661 -0.22641483
0.20091432 0.004384923 0.03600299 0.037307173 -0.09004852 -0.112792686 0.1800335 -0.09620478
-0.005314195 -0.02820445 0.14031139 -0.11727565 0.13783929 0.013384421 -0.07697851 0.10209173
0.19797175 -0.18362053 0.17845711 0.058436275 -0.07736888 0.14696825 0.10782546 0.031447563
0.09003192 0.1554082 -0.10304124 0.062029675 0.037448402 0.18115728 0.087525964 -0.1992913
0.046064332 -0.06762132 -0.17473966 0.13553807 -0.19580255 -0.088762656 0.034907322 -0.0932853
-0.18096389 -0.027082244 -0.018844998 -0.20384362 -0.04847611 -0.09999964 0.16487421 -0.1915573
0.12631331 0.21303347 0.16300358 -0.03871931 -0.044989932 -0.04165223 0.054883845 -0.07979641
-0.103777625 0.18628974 0.080109194 0.053381898 -0.19127454 0.14380357 -0.0920004 -0.04989632
-0.22784981 0.12857904 0.15273957 -0.2667283 -0.11722776 0.1297854 -0.17918901 -0.16024096
-0.26991028 -0.05993989 0.12670663 0.20333587

fc3.weight f4 [2, 100]
00000000: e96e a33c f31a 6abd e868 1cbd 8ac5 0ebd
00000010: 8d2d 9dbc 5731 84bb 28c5 e2bc 8d69 563c
00000020: 178c dbbc b911 d9bc 2839 32bd 7242 453c
00000030: 058c 633d bb20 803d f22d 3dbd 07fc d7bc
00000040: bdad 27bd e286 1fbd 8a4d dabc 2c1e 343b
00000050: e86b 7a3a 879c 203d 496d bb3c 281b abb9
00000060: 5042 2f3d 661a 88bd ed28 cb3b 5167 b73d
00000070: c4db 373d 862d edbc d472 a4bc 1fa4 80bd
00000080: bdb6 743c 0f6a 75bd b9af 883c 5a97 543c
00000090: eccf 46bd 7233 77bc 7ef0 06bc 3da6 793d
000000a0: 07c6 bc3c 5a71 953d 7ac9 903c 2767 5c3d
000000b0: 7d49 c33d 824a b33c f5eb f2bc 7d19 acbd
000000c0: 58fd eebc 055c bfbc e3b2 1b3c 4aa5 84bc
000000d0: a768 48bc 6eb8 053a 7d15 81bc 7af0 00bd
000000e0: 3437 093d 9230 b33d c8ed f3bb c10d 30bd
000000f0: 5785 ce3c 331c a6bd 209d 0e3c 1933 22bc
00000100: 4a1b cd3c d077 1ebc 2e94 483d c749 abbc
00000110: fa39 743d 4c69 883d f762 9c3b f665 21bc
00000120: 63b5 08bd 0195 9b3b 4669 703d ca9d 443d
00000130: e55e 0c3d 8f3c cfbc 302d 463c ab7a 353d
00000140: 5219 a43d 53f9 e63c 3b10 1d3d fa8f 10bb
00000150: bde2 f2bb a59a 9c3c 7b20 8ebd 7a5d 4ebc
00000160: 9757 9b3c 2fbc 2f3d 3bd3 6c3d 59f4 88bc
00000170: f79b 843d b775 903c dbea 12bd cedd 94bb
00000180: 1270 1dbd 409d b93c a9a6 87bd 7900 d43c
00000190: 8111 a03c cd3f 64bd faff 19bd 6eae 07bd
000001a0: 1f0d 8abc b31d d4bb 9c26 cbbc e658 be3b
000001b0: 490f e2bc 1f1e dfbc f132 37bd bada 8a3c
000001c0: a96c 693d 3ba0 7e3d 8210 3ebd 1229 c6bc
000001d0: 2a11 22bd 0ce6 1dbd 229e b8bc 0324 b63b
000001e0: 4cf1 ccb8 0ee9 203d 0b43 bf3c 8bad 2eb9
000001f0: 2754 1e3d 0ba8 88bd 6225 cb3b 4223 b63d
00000200: e5fa 3e3d a2c3 edbc 2263 b0bc 1dda 77bd
00000210: 1b31 663c 2342 6dbd 6612 5b3c 119d 5d3c
00000220: 87f2 3fbd 639a 73bc fad4 afbb da7c 763d
00000230: 74fa c43c 4a9d 963d f598 723c 579b 573d
00000240: 7ba4 c13d 3349 bc3c e7f5 06bd 9f29 acbd
00000250: 23c8 f3bc 7969 cfbc d4d8 1c3c 3926 91bc
00000260: 2dac 49bc cec4 a0bb e166 6cbc eae5 bcbc
00000270: e7c5 ff3c fb05 b43d 97ee efbb f2cf 32bd
00000280: 3092 ce3c b4ae aabd 2746 083c f50e 97bb
00000290: 5683 f63c 42ed 15bc 8e44 4b3d 1b82 72bc
000002a0: b347 763d a02e 8f3d 7218 203b 76e0 04bc
000002b0: cb7c 14bd a87e 663b c0ab 713d 023d 413d
000002c0: 0ce4 0a3d 8f22 c3bc 9b98 683c 668e 313d
000002d0: ecf4 a03d 052f c93c c9a0 223d 07f1 e7ba
000002e0: 497e bfbb 3b1e 263c d4a4 92bd a40a 7abc
000002f0: f3cb af3c b535 2a3d eb85 6d3d 359e 4bbc
00000300: 0c9f 833d 9ee1 593c 6ce3 1cbd be3d b1ba
00000310: a563 0ebd df34 d03c 1dbf 89bd 899c c33c
0.019950347 -0.057154607 -0.038185984 -0.034856357 -0.01918676 -0.004034202 -0.027681902 0.013086689
-0.026800198 -0.026497709 -0.04351154 0.012039768 0.055553455 0.06256243 -0.046186395 -0.026365293
-0.040937174 -0.038946994 -0.026648302 0.0027483804 0.00095528224 0.039211776 0.02287926 -0.00032635895
0.04278785 -0.0664566 0.006199947 0.08955253 0.04488732 -0.028952371 -0.020074286 -0.062813036
0.014936146 -0.0599156 0.016685354 0.012975538 -0.048538134 -0.015087949 -0.008236049 0.060949553
0.023043646 0.07297011 0.017674197 0.05380931 0.09535501 0.021886114 -0.029653529 -0.08403299
-0.029173538 -0.023359308 0.009503099 -0.016192097 -0.012231982 0.00051010295 -0.015757317 -0.031479336
0.03349991 0.087494984 -0.007444117 -0.042981867 0.025210066 -0.08110847 0.008704454 -0.009899878
0.025037427 -0.00967212 0.04896944 -0.020909203 0.059625603 0.06660709 0.0047725397 -0.00985097
-0.03337611 0.0047479873 0.058694147 0.048002042 0.034270186 -0.025297431 0.0120957345 0.04430644
0.08012642 0.028195059 0.038345557 -0.0022058473 -0.007412283 0.019116709 -0.06939789 -0.012595529
0.018962665 0.042904075 0.057818633 -0.016718077 0.064750604 0.017634256 -0.035868507 -0.0045430427
-0.038436957 0.02265799 -0.06623585 0.025879132 0.019539597 -0.055724908 -0.037597634 -0.033125333
-0.01685196 -0.006473267 -0.024798684 0.0058089374 -0.02759518 -0.027236043 -0.044726316 0.01695
0.056988392 0.062164526 -0.04640246 -0.024189506 -0.03956715 -0.038549468 -0.022536341 0.005558492
-9.772423e-05 0.03928476 0.023347398 -0.00016658583 0.038654473 -0.06672677 0.0061995247 0.08893444
0.04662599 -0.029023949 -0.021531645 -0.060510743 0.014049794 -0.0579244 0.013371086 0.013526217
-0.04686215 -0.014868352 -0.005365965 0.06017766 0.024045207 0.07354219 0.014806976 0.052638378
0.094552 0.022984123 -0.032949354 -0.08406376 -0.029758519 -0.025318848 0.00957318 -0.017718421
-0.012309116 -0.0049062734 -0.014428825 -0.02305885 0.031222297 0.08790203 -0.0073221433 -0.043655343
0.025216192 -0.08334103 0.008317507 -0.0046099373 0.030091923 -0.009150805 0.049625926 -0.014801527
0.06012697 0.06991315 0.0024428633 -0.008110156 -0.036251824 0.0035170708 0.059001684 0.047177322
0.03390889 -0.02382019 0.01419654 0.043348692 0.07859215 0.024558553 0.039704118 -0.0017695733
-0.005843912 0.010139043 -0.07160345 -0.015261326 0.021459555 0.041555125 0.057989042 -0.012427856
0.0642682 0.01329842 -0.038302824 -0.0013522429 -0.034762997 0.025415836 -0.06725905 0.023878353

fc3.bias f4 [2]
00000000: 507d 9d3e d5f8 b2be
0.30759668 -0.3495547
